NEV/Results/Original/trained_model_original.pt (torch, 27148 bytes, 10 tensors)

weight f4 [64, 30]
00000000: 6f9d 3ab6 841d 32bd 1d43 32bd 6946 5b37
00000010: 90ca 94b6 6551 32bd de69 40b7 9b3f 32bd
00000020: 161c 32bd 4b99 d136 e73c 32bd ba2a 32bd
00000030: e612 2b36 b932 32bd 402f 32bd d757 fab6
00000040: 6c2f 32bd 1548 32bd 0f80 19b7 002a 32bd
00000050: 21c4 d7b5 8cc9 eeb6 a237 32bd 6a3a 32bd
00000060: cfb8 adb7 3677 cb3c f00d 503d c37c a2be
00000070: f8b9 e2be 05d8 a5bf 2a3b ccb6 bdc1 7dbd
00000080: f5b0 7dbd a8f9 8f37 4a6e 90b7 1bc7 7dbd
00000090: de97 e236 089d 7dbd 61c7 7dbd e2c4 32b7
000000a0: 0da5 7dbd ebb1 7dbd 55da 90b7 e19b 7dbd
000000b0: 8db5 7dbd e341 24b5 f0bf 7dbd 51b6 7dbd
000000c0: d0b9 4c37 07b7 7dbd 14bd 86b7 f610 9e36
000000d0: b0a6 7dbd 32a6 7dbd d2a7 7eb6 9524 a4be
000000e0: 7759 75be 7e75 07be b513 a13b 4313 2b3c
000000f0: c0cd 5db7 b36b b5be f26c b5be d8fa b936
00000100: 2714 ae37 c66e b5be 86b9 8436 7a6b b5be
00000110: 1c6f b5be f115 d337 c36a b5be 636e b5be
00000120: 76c8 5db7 126f b5be 106c b5be 1565 c837
00000130: 176b b5be bd6c b5be 7518 8337 df6e b5be
00000140: 38cd b037 b311 fbb6 686c b5be cb6f b5be
00000150: 4773 6b37 f57b 1bbf b93b 063f 5352 a2be
00000160: a5f5 163e 36b7 37bf 3b51 b437 582a 79bd
00000170: db24 79bd 69b6 4fb7 f673 c737 932a 79bd
00000180: 5f53 c637 160f 79bd 1723 79bd a60a 8c37
00000190: e61b 79bd ff08 79bd 104a a536 570a 79bd
000001a0: 71ff 78bd dfdd 7a37 c127 79bd f80e 79bd
000001b0: 9c26 a1b6 2825 79bd 4251 68b7 8e64 9534
000001c0: b021 79bd 172b 79bd 9f36 d737 677d 1cbf
000001d0: 4b34 003e 3b9a c3be 605d 3f3e d712 91be
000001e0: 96ba 2fb7 94c4 21bd 52bd 21bd cf23 c837
000001f0: 1417 9b37 baca 21bd 4288 43b7 4bd6 21bd
00000200: 7da7 21bd c3ee 46b7 56a8 21bd 0fda 21bd
00000210: a0bb 0eb7 0cb4 21bd e9cc 21bd ba7a ccb6
00000220: 7ed9 21bd 72c7 21bd 1228 f536 63ae 21bd
00000230: 8998 06b7 6c94 8237 40b0 21bd 4bc7 21bd
00000240: c12d a4b7 709c e2b7 aebb 9ebe ec13 21bd
00000250: b4d9 0ebe efb7 05bd 985f 35b5 3493 0dbe
00000260: 8597 0dbe e572 79b6 b4b4 cbb7 149d 0dbe
00000270: 7052 2537 d492 0dbe 2297 0dbe 20b4 3bb7
00000280: 069d 0dbe fa99 0dbe eb45 dfb6 429c 0dbe
00000290: 9695 0dbe db31 c2b7 9b93 0dbe d995 0dbe
000002a0: 5d7e 4f37 2f96 0dbe 3226 c137 0ff7 d437
000002b0: 1b99 0dbe 649b 0dbe a10a a0b7 395f aa3d
000002c0: 2b5a 9a3d a24e 06bf 55fb 6dbf 6fb5 b4bf
000002d0: 5d82 4ab7 0750 71bd 0344 71bd 39d0 5037
000002e0: fe3b 9db7 374f 71bd 4f1f 4eb7 fc37 71bd
000002f0: 6343 71bd a04d a5b7 335b 71bd 2e57 71bd
00000300: 1f62 a136 2633 71bd 8e3b 71bd d941 b8b6
00000310: 875a 71bd 7363 71bd d4b8 4c36 d060 71bd
00000320: 903b 9bb7 4a51 9e37 a946 71bd 4858 71bd
00000330: 2e8e 1cb7 791b 13be cdfb bd3b 663d 58be
00000340: 60f0 0abb 5457 0abe 89e4 a637 7668 4cbd
00000350: b46f 4cbd 511e 7a37 115f c236 0a70 4cbd
00000360: 19d3 00b7 154d 4cbd c05c 4cbd 54c1 57b7
00000370: 9876 4cbd 3278 4cbd ab7e a1b7 6266 4cbd
00000380: c66c 4cbd e012 8c37 765c 4cbd c54d 4cbd
00000390: dbd1 9437 446b 4cbd 71f6 d7b6 a3b7 bcb7
000003a0: 7a6b 4cbd 325a 4cbd 6a6f 2ab7 dd71 b23d
000003b0: e38a 523d ffd0 b6be 0fb0 92bf 7faa b3bf
000003c0: e800 0db7 256f 08be 0569 08be ef0d d237
000003d0: e253 9db7 d76d 08be 1510 40b7 6167 08be
000003e0: 4f67 08be 9da9 a836 df68 08be 5f64 08be
000003f0: 881c fb36 d469 08be cd65 08be 42ff 34b7
-2.7807798e-06 -0.04348518 -0.043521035 1.3069811e-05 -4.434325e-06 -0.043534655 -1.1468741e-05 -0.04351769
-0.043483816 6.246531e-06 -0.043515112 -0.04349778 2.5491986e-06 -0.043505404 -0.043502092 -7.4608065e-06
-0.043502256 -0.043525774 -9.149327e-06 -0.043497086 -1.6075829e-06 -7.116416e-06 -0.043510087 -0.04351274
-2.0709265e-05 0.024837118 0.05079454 -0.3173581 -0.44282508 -1.2956549 -6.0865614e-06 -0.06195234
-0.061936338 1.7163184e-05 -1.7217495e-05 -0.06195746 6.7530045e-06 -0.061917335 -0.06195772 -1.0655467e-05
-0.061924983 -0.061937254 -1.7267806e-05 -0.061916236 -0.06194072 -6.119064e-07 -0.061950624 -0.06194145
1.220261e-05 -0.061942127 -1.6062091e-05 4.7107415e-06 -0.061926544 -0.061926074 -3.7946634e-06 -0.3205916
-0.2395991 -0.13228413 0.0049156793 0.010441604 -1.3220531e-05 -0.3543373 -0.3543468 5.5426317e-06
2.07518e-05 -0.35436076 3.9555043e-06 -0.3543356 -0.35436332 2.5163377e-05 -0.35433015 -0.3543578
-1.32193e-05 -0.35436302 -0.35434008 2.3888928e-05 -0.35433266 -0.35434523 1.5627806e-05 -0.3543615
2.1076397e-05 -7.4824434e-06 -0.3543427 -0.35436854 1.4033932e-05 -0.6073602 0.5243488 -0.31703433
0.14742143 -0.7176393 2.1495498e-05 -0.060831398 -0.060826164 -1.2380632e-05 2.3776647e-05 -0.060831618
2.3642262e-05 -0.060805403 -0.06082448 1.669426e-05 -0.06081762 -0.060799595 4.926005e-06 -0.060800876
-0.060790483 1.495282e-05 -0.060828928 -0.06080529 -4.8026686e-06 -0.06082645 -1.3847197e-05 2.7826576e-07
-0.060823143 -0.06083211 2.5655432e-05 -0.6112885 0.12519948 -0.38203606 0.18687963 -0.28334686
-1.0474256e-05 -0.039494112 -0.03948719 2.3858533e-05 1.8488186e-05 -0.039499976 -1.1654631e-05 -0.039511006
-0.03946637 -1.1857311e-05 -0.03946718 -0.039514598 -8.507544e-06 -0.039478347 -0.03950206 -6.093961e-06
-0.039514057 -0.039496846 7.306234e-06 -0.03947295 -8.022537e-06 1.5566322e-05 -0.039474726 -0.0394967
-1.957163e-05 -2.7014146e-05 -0.31002563 -0.03932564 -0.13950235 -0.032646116 -6.756686e-07 -0.13825685
-0.13827331 -3.7170769e-06 -2.4283632e-05 -0.13829452 9.85396e-06 -0.13825542 -0.13827184 -1.1188007e-05
-0.13829431 -0.13828269 -6.6540574e-06 -0.13829139 -0.13826594 -2.3149818e-05 -0.13825838 -0.13826694
1.2367583e-05 -0.13826822 2.3025179e-05 2.5387415e-05 -0.13827936 -0.13828808 -1.9078436e-05 0.083189435
0.075367294 -0.52463734 -0.9296163 -1.4117869 -1.2070491e-05 -0.05891421 -0.05890275 1.2446247e-05
-1.8743794e-05 -0.058913436 -1.2285846e-05 -0.05889128 -0.058902156 -1.970568e-05 -0.058924865 -0.05892103
4.8095967e-06 -0.05888667 -0.058894686 -5.491293e-06 -0.058924224 -0.058932733 3.0505953e-06 -0.05893022
-1.8505176e-05 1.8872921e-05 -0.058905277 -0.058922082 -9.331428e-06 -0.14365949 0.0057978393 -0.21117172
-0.0021200404 -0.13509876 1.9895162e-05 -0.04990431 -0.049911216 1.490822e-05 5.7927177e-06 -0.049911536
-7.6785445e-06 -0.0498782 -0.04989314 -1.2860011e-05 -0.049917787 -0.049919315 -1.925168e-05 -0.049902327
-0.049908422 1.669809e-05 -0.049892865 -0.049878854 1.7740696e-05 -0.049906984 -6.436189e-06 -2.2496859e-05
-0.049907185 -0.049890704 -1.015873e-05 0.08713124 0.051401984 -0.35706326 -1.1459979 -1.4036406
-8.404466e-06 -0.13323648 -0.13321312 2.504044e-05 -1.875492e-05 -0.1332315 -1.1447836e-05 -0.13320686
-0.13320659 5.0265357e-06 -0.13321255 -0.13319539 7.4837044e-06 -0.1332162 -0.13320084 -1.0788268e-05

bias f4 [64]
00000000: 2a37 32bd 38a0 7dbd 176e b5be 3812 79bd
00000010: e9cb 21bd 8e98 0dbe cc41 71bd 3a72 4cbd
00000020: f168 08be 10e6 eebe a612 d6be 5169 4e3c
00000030: 5c97 5dbe 9104 953d 6fec 14bf 5f59 aabd
00000040: 2a7f 19bd 4cda 81bd 4ada fabb dac8 c2be
00000050: a396 e2be 1466 b7be f509 e9be 6c4e f6bd
00000060: b724 98bd fdaf 13be 24a5 27be fc22 15bf
00000070: 217d b6bc 2a8c 18bf fa6e 173c 145e 06bf
00000080: 66b9 b4bd de91 0cbf d838 a2bd 7f89 71bd
00000090: 2931 b1bc bc58 96be 8114 02bf 68f9 f2be
000000a0: fad1 0ebe 48c0 46bd 8e3b 56bd d5a8 ddbe
000000b0: bcef 46be eafb 60bd 266c 2bbe 16e1 98bd
000000c0: ff3a 2dbd 556f f0be 912d 283e ad83 cebe
000000d0: 1f55 16bd 04ea 9cbd 75d6 35bd 0b73 133c
000000e0: 8a97 3fbe c9f7 22bd 939a 1ebe 92c9 b0bc
000000f0: 4f53 d3be bde6 c4be 6a4c 4bbe 8f74 403e
-0.04350964 -0.061920375 -0.35435554 -0.06080839 -0.039501105 -0.13827726 -0.05890064 -0.049913622
-0.13321282 -0.466599 -0.41811103 0.012598352 -0.2163977 0.072762616 -0.5817327 -0.083178274
-0.03747479 -0.06340465 -0.0076554166 -0.38043863 -0.44255552 -0.35820067 -0.4551541 -0.120266765
-0.07428878 -0.14422603 -0.1637159 -0.58256507 -0.022276463 -0.59588873 0.0092427675 -0.524873
-0.088244244 -0.54910076 -0.07920998 -0.058969017 -0.021629887 -0.29364574 -0.50812536 -0.47455907
-0.13947287 -0.048523217 -0.05230289 -0.4329287 -0.19427389 -0.054927744 -0.16740474 -0.07464807
-0.04229259 -0.4695994 0.16423632 -0.40334836 -0.03670227 -0.076618224 -0.044393975 0.008999596
-0.18710151 -0.039787088 -0.15488653 -0.021580491 -0.41274497 -0.3845729 -0.19853368 0.18794464

weight f4 [32, 64]
00000000: f689 8abd 00b1 3ebc 1dda 41bd e794 b63d
00000010: 85a7 76bd 2cb1 9abe 2740 07bc 95b3 a2be
00000020: 9806 10bc d112 c0bd 162f 3fbc 7de9 15bf
00000030: d009 f4bd 67c9 55bf 7d2b 813b ddae 8fbb
00000040: 28bb 81bc 70ae 1fbd 3581 23be 8102 18bd
00000050: 5290 9cbc 8731 5abd ce6b c0bc 769b 80bc
00000060: 614d 09bd db45 55bd 3f9b 23be 0c84 0e3b
00000070: 125e bbbe 90e6 cc3a 4768 3cbf 8cd9 2039
00000080: 3ce5 0cbe 5857 2039 7e5a a9bd e612 3dbe
00000090: c464 a3bd ae83 ddbd 125c 713c 2147 4bbc
000000a0: f2cc 31be 98ab 3bbc 732e 70be 76a1 cbbc
000000b0: 6c8e 01be 2250 bcbe 0cf7 22be e831 2cbe
000000c0: dbd6 debb ec86 40bc 5777 84be cac8 ecbc
000000d0: 2b0d 53bc 042d b5bd e7bf c9bb 4b34 7ebf
000000e0: 4075 05be 21a3 28bb e6ed 29be 8dcd 12bf
000000f0: 1565 e0bc e924 23bd 7dde 12be 4c57 efbf
00000100: b3f5 1b3e fedc 68bc a2a5 843d 3420 98bd
00000110: 4dda dd3d 830c c83e d93a abbc 9f40 de3e
00000120: 6c77 b33c e97d 713e d92f dbbd b0fc 353f
00000130: 09d1 283e feee 4e3f bb98 7dbd a127 08be
00000140: 61df 5dbc 5eed 933b 2505 573e 58de 323d
00000150: 9f0d 183c 7efc 433d 5b91 d63b 74d4 593d
00000160: 67ba 92ba 39ec 333e 1a10 303e 0fc8 95bd
00000170: d31a ba3e 58b9 6cbd 7a25 363f bd65 23bd
00000180: 15f2 ff3d bf33 d4bd a5a2 f43c cf6c e33e
00000190: b0c4 a73d c57c 133e af4b babd 1e86 d2bc
000001a0: 12c3 433e a72d 953c 6b45 b13e 91d4 d13c
000001b0: 60bf 1f3e d83a fb3e 6f68 1d3e 6432 3e3e
000001c0: f9b5 583c 6fc1 0b3b a817 85bf c4b5 0c3d
000001d0: 590d b0bc 8b00 843e 887b 86bc d2c8 2b3f
000001e0: 6d19 193e 2d58 90bd 248b 343e 5098 243f
000001f0: b241 b63c 637f 413d 7488 f03d bd68 883f
00000200: c250 2fbc a00d 88bc 4c06 8bbc bfe7 69bd
00000210: a6be 8f3b 379b efbd 11e9 8cbc 64ad a2bd
00000220: cba5 37bc b54b adbd 3713 e5bd 4d18 50be
00000230: 8214 653d 3b4a 8cbe 0140 2abd 1a7e 5dbd
00000240: 19ed febb dbcc c3bc c846 463d 3f95 0ebd
00000250: 35a7 43bd 099f e1bc d9b5 53bd 4b4e 7ebc
00000260: f70c f1bc 7a77 18bd 0701 02bc 6a19 73bd
00000270: 5211 5cbd 832f 47bd 6e7d 6ebe 7aa5 4ebd
00000280: 217f 5dbd 4d49 a5bd cf5a 19bd 5708 5dbd
00000290: 28ba 223d bf71 16be b3a9 9cbd 8dd6 93bd
000002a0: 305d a53c edee 61bc e284 5ebd cc05 20bd
000002b0: 5580 233d 7403 c8bd 13e7 14bd 0487 be3c
000002c0: 1988 48bb 91e0 28bd f413 17bf 43a8 0abd
000002d0: f32f c5bb 3cb6 eabc f077 42bc 02e2 a5be
000002e0: c092 463d 4ba8 f8bc ece1 ec3b 3123 34be
000002f0: 245b a5bd 900a f5bc 8110 29bd 6be0 54bf
00000300: 2847 183e 2a42 01bc 4cb5 8a3d 5db6 96bd
00000310: 403f f73d c2e0 ca3e 44d3 90bc e208 d83e
00000320: e36c 053d 011d 7b3e 406a c3bd b47d 3a3f
00000330: e1e9 2c3e 81e0 513f 8e25 81bd 4698 44be
00000340: 3d76 00bc c7a9 6c3c 2eac 573e adb4 3d3d
00000350: 2f62 2c3c 42d2 453d 1668 ec3b f4a2 a03d
00000360: 43e5 113c 9f15 443e 15f4 353e dcd4 92bd
00000370: 9798 bc3e 3547 6abd fdb2 3a3f 3e38 23bd
00000380: 0dfa 043e be5a c9bd 1ae9 463d 8368 da3e
00000390: fba1 a83d 113c 1e3e e1a0 b0bd 9a61 8ebc
000003a0: bc6a 493e a459 a83c e282 ab3e 4649 dd3c
000003b0: f12d 253e 50b6 f33e 840f 223e 3976 433e
000003c0: 8979 9e3c 2eba 563b 748b 80bf 62e1 153d
000003d0: e33e 80bc 777a 843e 386a 9fbc 79e6 2f3f
000003e0: 1ee1 1a3e 0804 debd 3bdf 393e 10f8 273f
000003f0: 3ab2 123d 0e14 483d 8792 fa3d 4837 8e3f
-0.06764595 -0.01163888 -0.04732715 0.089151196 -0.060218353 -0.30213296 -0.008255041 -0.31777635
-0.008790635 -0.09378589 -0.011668941 -0.585594 -0.11915934 -0.8351044 0.003941952 -0.004384859
-0.015836313 -0.038984716 -0.15967257 -0.037111763 -0.019111786 -0.05326989 -0.023488905 -0.01569913
-0.03352106 -0.052068572 -0.1597719 0.0021746187 -0.36595207 0.0015632678 -0.73596615 0.00015339832
-0.13759321 0.00015291327 -0.08269213 -0.1846424 -0.07978204 -0.108161315 0.014731424 -0.012407095
-0.17363337 -0.011454485 -0.23455219 -0.024857264 -0.12651986 -0.36779886 -0.15914553 -0.16815913
-0.006800515 -0.011750918 -0.258723 -0.028904337 -0.012881557 -0.08846477 -0.0061569097 -0.9929854
-0.13033009 -0.0025731998 -0.16594657 -0.57344896 -0.02739195 -0.039830122 -0.14342685 -1.8698516
0.15230446 -0.014212845 0.064769045 -0.07428017 0.10832653 0.39072046 -0.020902084 0.43408677
0.02190753 0.23583187 -0.107024856 0.71088696 0.1648599 0.80833423 -0.061913233 -0.13296367
-0.013542027 0.0045143804 0.20998056 0.043669075 0.009280591 0.047848217 0.0065480894 0.053181127
-0.0011194468 0.1757058 0.17193642 -0.07313549 0.3634859 -0.057793945 0.71150935 -0.039891947
0.12497345 -0.10361432 0.029862711 0.44418952 0.08191812 0.14403065 -0.09096467 -0.025698718
0.19117382 0.018210245 0.34623274 0.025614055 0.15600348 0.49068332 0.1537187 0.1857391
0.013226979 0.0021325012 -1.0397844 0.034353033 -0.02149074 0.25781664 -0.016416326 0.671033
0.14951105 -0.07048068 0.17631203 0.6429491 0.022248123 0.047240626 0.11744776 1.0656964
-0.0107004065 -0.01660806 -0.016970776 -0.057105776 0.0043867407 -0.11699527 -0.017200978 -0.07943228
-0.011208962 -0.084617056 -0.111853056 -0.2032177 0.05592776 -0.27400383 -0.041564945 -0.054075338
-0.007779729 -0.023901394 0.048407346 -0.0348103 -0.047766883 -0.027541654 -0.051687095 -0.015521596
-0.029425127 -0.037223317 -0.007934815 -0.05935041 -0.053727455 -0.048629295 -0.23290035 -0.05045078
-0.054076318 -0.08070622 -0.037440117 -0.05396303 0.039728314 -0.14691828 -0.07649555 -0.07218657
0.020186037 -0.0137898745 -0.054325946 -0.03906803 0.03991731 -0.09766284 -0.036353182 0.02325774
-0.0030598699 -0.04122979 -0.5901482 -0.033851873 -0.006017679 -0.02865135 -0.011869416 -0.32398993
0.048479795 -0.030353686 0.0072290804 -0.1759155 -0.08074024 -0.029912263 -0.041275505 -0.83154935
0.14870894 -0.00788931 0.06772861 -0.07359002 0.12072611 0.39624602 -0.017678864 0.42194277
0.032574546 0.24522783 -0.0954175 0.7284806 0.16886093 0.8198319 -0.06305991 -0.19198713
-0.00784069 0.014444775 0.21061775 0.046314884 0.010521456 0.04829622 0.0072145564 0.07843581
0.008904758 0.19148873 0.17768891 -0.07169506 0.36835167 -0.057196815 0.72929364 -0.03984856
0.12986012 -0.09831761 0.048562147 0.4265786 0.0823402 0.15452601 -0.08624435 -0.017380524
0.19669622 0.020550556 0.33498293 0.027012479 0.16130807 0.4760003 0.15826231 0.19088067
0.019345062 0.003276478 -1.0042558 0.036591895 -0.015654987 0.25874683 -0.019459829 0.6871105
0.15124938 -0.10840613 0.18151562 0.6561289 0.0358145 0.04884725 0.12234979 1.111062

bias f4 [32]
00000000: ad76 a2be 7b27 c83d bbf2 d6be 62ab 1a3e
00000010: 5756 383f 9caf 11be 948c 1cbf 4bc4 cfbe
00000020: bb4a 8cbe 25a4 56be 77c4 cdbe 536e 3fbe
00000030: 481f b7be 4b23 e03d c69e 02bf a77d eabe
00000040: ed28 96be 0431 47be 0f6e 9bbe f71f cdbe
00000050: 9416 b5be b38e dabe 475a 9dbe 16be 3a3e
00000060: 7379 b5bc f550 edbe ef07 073e c327 6bbe
00000070: dd13 da3d 0594 2c3e 11cf 6fbe d587 3dbe
-0.31731167 0.09773155 -0.41982064 0.1510444 0.72006744 -0.14227146 -0.61152005 -0.40579447
-0.27400765 -0.20961054 -0.40188953 -0.18694429 -0.35766053 0.109442316 -0.5102352 -0.4579899
-0.293281 -0.19452292 -0.30357406 -0.4006345 -0.35368788 -0.42686996 -0.3073294 0.18236575
-0.022152638 -0.46350828 0.1318662 -0.22964387 0.1064832 0.1685334 -0.23418833 -0.18508847

weight f4 [32, 32]
00000000: ecc9 4b3e 7b11 a0bf 5a91 63be 71ac a0bf
00000010: 8657 bd3f 5cb8 a03e 05b7 413e 6289 e6bc
00000020: 8a88 2b3e 6bbb 0e3e d996 3fbd cdcd 033e
00000030: 7f0c 583e 0983 9dbf f7fb 513e ace2 563e
00000040: e115 473e 1d2f 0d3e 3c24 4a3e 2d8c e9be
00000050: 2fdd 553e 7291 83be 6cec 4f3e 5d15 a1bf
00000060: bb07 92bf 53f1 5c3e bdfc 9dbf afe3 103e
00000070: 7885 9ebf b38c a1bf 31a8 68bf 28a3 053e
00000080: 6edc 7abe 4360 9b3f 1a67 1f3e a3fa 9c3f
00000090: 4cd5 bbbf 47e4 b0be 8602 88be 58d1 02bd
000000a0: cbaa 56be 6b7b 3cbe b7b9 6abc df03 2cbe
000000b0: 66d7 86be 528e 993f 5e29 8ebe f507 8ebe
000000c0: d9d9 71be 74e6 2dbe 7fb6 75be f915 c33e
000000d0: 3505 84be 9e71 413e 77a2 78be e2ce 9d3f
000000e0: 22a1 8d3f 9aeb 8ebe 0251 9a3f 2aea 40be
000000f0: 6a48 9a3f 7e08 9e3f 5c04 5a3f 854b 2ebe
00000100: c06c 7ebe 35a5 9b3f 6688 243e a73a 9d3f
00000110: fc69 bbbf 525c afbe 0c29 90be 2787 04bd
00000120: a81b 82be 51b6 92be 8c6d 5fbc ae79 97be
00000130: 52c4 88be 4ecd 993f 655d 9bbe 837f 95be
00000140: efce 6ebe bb5d 77be 269b 72be 7402 c63e
00000150: 24e7 85be 485b 473e 7674 75be 470d 9e3f
00000160: 47df 8d3f d45a 93be b68d 9a3f b569 95be
00000170: 7190 9a3f 9247 9e3f 8a92 5b3f 6481 97be
00000180: abc9 7bbe 9b2c 9b3f 3957 1e3e 88c8 9c3f
00000190: a616 bcbf 95ed b1be 442c 80be ef8f fcbc
000001a0: c339 4abe 6adf 2fbe 6605 6dbc d476 20be
000001b0: f03f 82be 3361 993f 88fc 85be 6903 86be
000001c0: f8f6 73be 2ed3 23be 14f6 77be 7b71 c23e
000001d0: 658b 84be 855d 403e e6eb 7abe 919f 9d3f
000001e0: 5878 8d3f 21e0 8cbe 7226 9a3f 5410 34be
000001f0: 0216 9a3f e1da 9d3f 758d 593f 2e9e 22be
00000200: a7e5 7abe c07b 9b3f b312 213e 0d13 9d3f
00000210: 51a3 bbbf f3d6 afbe 8424 90be 685b 03bd
00000220: b783 7abe a098 5cbe 94c8 60bc 2ece 4dbe
00000230: 01d8 86be c8a3 993f 3413 97be 8963 91be
00000240: ffab 6fbe 88ea 4abe cb76 73be 98c7 c33e
00000250: 5206 84be 575e 433e 155c 76be c2e4 9d3f
00000260: ecb3 8d3f e850 90be 1866 9a3f 3a02 63be
00000270: 0364 9a3f 971d 9e3f 3b9d 593f f524 50be
00000280: e44e 4c3e 161f a0bf a7f5 66be 949a a0bf
00000290: 4609 bd3f 31ae 9f3e a5c8 4b3e 8ced fabc
000002a0: 7d4f 513e d80d 4d3e 607d 47bd 8e2f 453e
000002b0: b024 5b3e bf6f 9dbf bcac 693e 6405 663e
000002c0: 39fe 443e 9a5f 423e 19ed 473e 61af ecbe
000002d0: 205c 563e ff7f 85be 288b 4d3e ef01 a1bf
000002e0: 6403 92bf 3f66 633e f1eb 9dbf ae91 503e
000002f0: 9e75 9ebf e77b a1bf e10f 68bf d5f5 473e
00000300: fc91 7cbe b811 9b3f c9e3 1d3e ebb0 9c3f
00000310: 953c bcbf c1a6 b2be c968 78be 5c1a f8bc
00000320: 6af1 43be a099 29be a72a 6dbc c4b5 1abe
00000330: 455c 7cbe df4c 993f 3bd8 81be d8d9 81be
00000340: 218b 75be 86b6 1ebe b5a0 79be dc41 c23e
00000350: 90f8 84be fce3 3f3e 469a 7cbe 158a 9d3f
00000360: 7d67 8d3f 4eab 89be ab13 9a3f a79d 2dbe
00000370: 56fd 993f 3dc4 9d3f c491 593f 50c9 1cbe
00000380: 54f9 7abe 2761 9b3f c276 1f3e cffa 9c3f
00000390: 39d4 bbbf a3e6 b0be 360a 88be a624 03bd
000003a0: 01ba 56be 6245 3cbe 1e21 6bbc f9c3 2bbe
000003b0: 85e4 86be 088e 993f 4033 8ebe aa3e 8ebe
000003c0: ecd8 71be 46eb 2dbe 99b1 75be e02d c33e
000003d0: c116 84be a987 413e 82aa 78be 59cf 9d3f
000003e0: bfa1 8d3f c2fc 8ebe 1351 9a3f 5ab1 40be
000003f0: fd48 9a3f 4c08 9e3f d61d 5a3f d211 2ebe
0.19901246 -1.2505335 -0.22223416 -1.2552625 1.4792335 0.31390655 0.18917473 -0.028141681
0.16751304 0.13938682 -0.04677472 0.12871476 0.21098517 -1.2305614 0.20506273 0.20984906
0.1944194 0.13787504 0.19740385 -0.45614758 0.20885156 -0.25696903 0.20305032 -1.2584645
-1.1408609 0.21576433 -1.2342755 0.14149354 -1.2384481 -1.2621063 -0.9088164 0.1305052
-0.2449815 1.2138752 0.15566674 1.2263988 -1.4674468 -0.34549162 -0.26564425 -0.031937927
-0.2096359 -0.18406455 -0.014326504 -0.16798352 -0.2633621 1.1996558 -0.27765936 -0.27740446
-0.23618259 -0.16982442 -0.23995398 0.381027 -0.25785223 0.18890998 -0.24280725 1.2328761
1.1064799 -0.27914125 1.2055972 -0.18839327 1.2053349 1.2346342 0.851629 -0.17020996
-0.24846172 1.2159792 0.16067657 1.2283524 -1.4641719 -0.34250122 -0.28156316 -0.032355454
-0.25411725 -0.2865472 -0.013636958 -0.29585022 -0.2671228 1.2015779 -0.30344692 -0.29198846
-0.23321126 -0.24156849 -0.23691997 0.38673747 -0.2615291 0.19468415 -0.23970208 1.2347802
1.1083764 -0.28780234 1.2074497 -0.2918221 1.207533 1.2365592 0.85770476 -0.29590905
-0.24588649 1.2122988 0.1546296 1.2248697 -1.4694412 -0.34751573 -0.25033772 -0.030830352
-0.19748597 -0.1717507 -0.014466619 -0.1567033 -0.25439405 1.1982788 -0.2616923 -0.26174477
-0.2382468 -0.15998527 -0.24214965 0.37977204 -0.258876 0.18785675 -0.2450405 1.2314321
1.1052351 -0.27514747 1.2042983 -0.17584354 1.2037966 1.2332422 0.8498147 -0.15880653
-0.24501668 1.214714 0.1572979 1.2271439 -1.4659215 -0.3434368 -0.2815286 -0.032069594
-0.24464308 -0.21542597 -0.013719697 -0.20098183 -0.26336673 1.2003107 -0.29506838 -0.28396252
-0.23405455 -0.19816029 -0.23775785 0.38238215 -0.25786072 0.19078957 -0.24058564 1.2335436
1.1070533 -0.28186727 1.2062407 -0.22168818 1.2061771 1.235278 0.8500554 -0.20326598
0.1995197 -1.2509487 -0.22554646 -1.2547174 1.4768455 0.31187585 0.19900759 -0.03063085
0.20440479 0.20024812 -0.04870355 0.19256422 0.21400714 -1.2299727 0.22819799 0.22462994
0.19237603 0.18981782 0.1952404 -0.46227553 0.2093358 -0.26074216 0.20072615 -1.2578715
-1.1407285 0.22206973 -1.2337629 0.20368072 -1.2379644 -1.2615937 -0.9064923 0.19527371
-0.24665064 1.2114782 0.15418924 1.2241491 -1.4705988 -0.34892848 -0.24258722 -0.030286007
-0.19135061 -0.1656251 -0.014475501 -0.151084 -0.24644573 1.1976584 -0.25360283 -0.25361514
-0.23978855 -0.15499315 -0.24377711 0.37940872 -0.25970888 0.18739313 -0.24668226 1.2307764
1.1047207 -0.26888508 1.2037252 -0.16954671 1.2030437 1.2325512 0.84988046 -0.1531117
-0.24509174 1.2139024 0.15572646 1.2264041 -1.467414 -0.34550962 -0.2657029 -0.032017373
-0.20969392 -0.18385842 -0.0143511575 -0.16773976 -0.26346222 1.199647 -0.27773476 -0.27782184
-0.23617905 -0.16984281 -0.2399353 0.38120937 -0.2579861 0.18899406 -0.24283794 1.2328902
1.1064986 -0.27927214 1.2055992 -0.18817654 1.2053524 1.2346282 0.85201776 -0.16998985

bias f4 [32]
00000000: 3571 9bbb 1d67 a2bd 9e50 a1bd ef4f 9bbd
00000010: e1ca a2bd 8156 c2bb 24a8 97bd 6c73 a2bd
00000020: c522 c5bb fce0 a6bb f8ce a2bd 348d 9fbd
00000030: d225 a2bd 94a1 a0bd ae60 a7bb 6711 b0bb
00000040: b7d3 c6bb 609f a2bd cd13 a3bd 57a1 afbb
00000050: 3039 abbb 243c c2bb 1116 a2bd 4d6f a3bd
00000060: d9d4 a9bb 36e2 b5bb a390 b6bb 88c6 a2bd
00000070: 6475 b7bb a0e2 a1bd 873c a1bd a3ac a8bb
-0.00474372 -0.079298235 -0.07876705 -0.075836055 -0.07948852 -0.005930722 -0.07405117 -0.07932171
-0.0060161077 -0.005092738 -0.079496324 -0.07790604 -0.0791737 -0.078433186 -0.0051079607 -0.0053731683
-0.006067719 -0.079405546 -0.07962761 -0.0053598094 -0.005225323 -0.0059275795 -0.07914365 -0.07980213
-0.005182844 -0.005550648 -0.0055714413 -0.07948023 -0.005598711 -0.079045534 -0.07872873 -0.005147533

weight f4 [4, 32]
00000000: 1dfa 0c3f 4eef 01bf 8c9a 02bf b8e8 01bf
00000010: a22a 02bf f1cc 0c3f 8ee5 01bf 6aef 01bf
00000020: 3fda 0c3f 67c4 0c3f 5317 02bf e4ee 01bf
00000030: ed54 02bf 16ec 01bf cebf 0c3f 52b4 0c3f
00000040: 15e0 0c3f 2222 02bf e508 02bf 57b9 0c3f
00000050: 4cbc 0c3f 09ca 0c3f 71ef 01bf aafe 01bf
00000060: c6b9 0c3f d3b9 0c3f edb9 0c3f e02e 02bf
00000070: 65b9 0c3f 2027 02bf 0296 02bf d6bf 0c3f
00000080: 9740 3abf 962a 30bf bb36 1fbf 1c2c 35bf
00000090: 51a9 27bf 968e 37bf fcc8 33bf f050 35bf
000000a0: fed8 2ebf 3e3f 35bf ad91 2bbf 6fd8 2ebf
000000b0: 3dc5 2abf 9030 35bf 10dc 33bf 3af7 33bf
000000c0: 8608 32bf ca56 31bf 42e1 31bf 8336 41bf
000000d0: c984 3ebf e0c5 33bf c7f9 38bf 9315 2ebf
000000e0: c09a 40bf c1cf 3cbf 5c67 3cbf cb0b 27bf
000000f0: 2c79 32bf 40cb 3ebf 0055 33bf b377 33bf
00000100: 0ef2 0cbf b2f8 013f cea7 023f 19f0 013f
00000110: 6636 023f e6c2 0cbf adee 013f aef8 013f
00000120: 64cd 0cbf 89bc 0cbf 9522 023f 16f8 013f
00000130: 5b61 023f 09f6 013f c4b7 0cbf 34ab 0cbf
00000140: d0d4 0cbf 532b 023f 4d14 023f b0af 0cbf
00000150: b8b4 0cbf 45c1 0cbf fcf7 013f 1308 023f
00000160: 57b3 0cbf 7fae 0cbf ffae 0cbf a13a 023f
00000170: cdaf 0cbf 1331 023f f7a0 023f adb7 0cbf
00000180: f9db 41bf d4c9 37bf 3c16 26bf c3c5 3cbf
00000190: 7aed 2ebf 4faa 3dbf 748d 3bbf 948a 3dbf
000001a0: f007 35bf 9098 3cbf 940b 33bf f16b 36bf
000001b0: 5134 32bf cf11 3dbf 5d76 3bbf e8ba 3abf
000001c0: 4045 38bf 1430 39bf 18aa 39bf 4fa2 47bf
000001d0: b1a1 45bf b0c8 39bf 5911 41bf 92a4 35bf
000001e0: 5809 48bf 3e33 43bf f2e4 42bf c276 2ebf
000001f0: 81d6 38bf bec5 46bf 1c42 3abf de90 3abf
0.5506914 -0.50755775 -0.5101707 -0.50745726 -0.508463 0.55000216 -0.507409 -0.5075594
0.5502052 0.54987186 -0.5081684 -0.50755143 -0.50910836 -0.50750864 0.5498017 0.54962647
0.5502942 -0.5083333 -0.5079482 0.54970306 0.5497482 0.5499578 -0.50755984 -0.5077921
0.5497097 0.54971045 0.549712 -0.50852776 0.5497039 -0.5084095 -0.51010144 0.5498022
-0.72754806 -0.6881498 -0.6219289 -0.7077043 -0.6549273 -0.71701944 -0.7022855 -0.70826626
-0.68299854 -0.70799625 -0.6701916 -0.68299 -0.6670721 -0.70777225 -0.70257664 -0.7029911
-0.69544256 -0.69273055 -0.6948434 -0.75473803 -0.74421364 -0.7022381 -0.7225613 -0.6800167
-0.7523613 -0.7375451 -0.73595214 -0.6525237 -0.69716144 -0.74528885 -0.70051575 -0.7010452
-0.55056846 0.50770104 0.510373 0.50756985 0.50864255 -0.5498489 0.50754815 0.5077008
-0.550009 -0.5497518 0.5083402 0.50769174 0.509298 0.50766045 -0.54967904 -0.54948735
-0.55012226 0.5084736 0.50812227 -0.5495558 -0.54963255 -0.54982406 0.5076902 0.5079357
-0.5496115 -0.5495376 -0.5495452 0.5087071 -0.5495575 0.5085613 0.5102686 -0.54967767
-0.75726277 -0.7179234 -0.64877677 -0.7373926 -0.6833111 -0.74087995 -0.73262715 -0.7403958
-0.70715237 -0.7367029 -0.6993954 -0.71258456 -0.6961108 -0.738553 -0.73227483 -0.72941446
-0.7198067 -0.72338986 -0.7252517 -0.7798204 -0.77199847 -0.7257185 -0.75417095 -0.7095424
-0.7813926 -0.76250064 -0.7613059 -0.6814996 -0.72202307 -0.7764548 -0.72757125 -0.728773

bias f4 [4]
00000000: e96a bc3c cdfd 44bf 1437 bbbc 3656 50bf
0.023000197 -0.7694977 -0.022853412 -0.8138155

weight f4 [25, 4]
00000000: 4ad4 50c0 769d 48bc 70d4 5040 db4f f0bc
00000010: 54aa 72c0 726d d2bd 7eaa 7240 c096 47be
00000020: a1c9 89c0 8efb 88bc 9fc9 8940 88e5 18bd
00000030: ce73 88c0 c036 c9bc be73 8840 8402 7cbd
00000040: de98 81c0 c556 43bd dd98 8140 5db6 f7bd
00000050: 10b7 65c0 63fe 8d3d f6b5 6540 6e94 f83d
00000060: 3c8c 78c0 ec20 cebd 9e8d 7840 7dde 7bbe
00000070: 3271 84c0 fa4c 98bc ef70 8440 6f64 26bd
00000080: 0e65 86c0 a821 d9bc 0566 8640 ba99 5dbd
00000090: 3312 9fc0 872c 72bd 5a11 9f40 00be 0dbe
000000a0: 7d98 57c0 646a fc3b b899 5740 2bbf 6d3c
000000b0: 384d 7bc0 199e 113d d74b 7b40 c5b0 9e3d
000000c0: 2ae6 8fc0 95b7 953d e7e5 8f40 2793 203e
000000d0: 836c 78c0 3ccb dd3d 0f6b 7840 b332 803e
000000e0: b2fe 73c0 b3a1 e13d 85fe 7340 a079 823e
000000f0: 8d97 59c0 1a96 153d 5a97 5940 291e af3d
00000100: 7130 81c0 a56f 56bd 9530 8140 40b4 edbd
00000110: 0106 87c0 cf4e 863c 2105 8740 4095 d13c
00000120: 767c 82c0 063a 993c 747c 8240 f1d4 0f3d
00000130: 1765 81c0 0443 20bb 1665 8140 dc34 d8bb
00000140: 94c0 52c0 32ab 7bbc 8cc0 5240 5ab5 37bd
00000150: 0a6a 83c0 e94b 8abd a469 8340 06b6 04be
00000160: b136 75c0 d4db 253d f836 7540 8a08 b93d
00000170: d44c 72c0 afda 2d3d 374e 7240 4b3c da3d
00000180: e853 84c0 674e 5e3d 3553 8440 c079 fe3d
-3.262957 -0.012244573 3.2629662 -0.029334953 -3.791646 -0.10274781 3.791656 -0.194911
-4.305863 -0.016721513 4.305862 -0.037328273 -4.2641363 -0.02456224 4.2641287 -0.061525837
-4.0499105 -0.04769017 4.04991 -0.1209533 -3.5892982 0.06933286 3.589231 0.12137686
-3.8835592 -0.10064873 3.8836436 -0.24596591 -4.138818 -0.018591393 4.138786 -0.040623125
-4.199836 -0.026505306 4.1999536 -0.054101683 -4.9709716 -0.059124496 4.970868 -0.1384201
-3.3686821 0.0077031124 3.3687572 0.01451091 -3.926588 0.035551164 3.926504 0.0774856
-4.496846 0.07310406 4.4968143 0.15681134 -3.881623 0.108297795 3.8815343 0.2503868
-3.8124204 0.1101717 3.8124096 0.25483418 -3.399875 0.0365201 3.3998628 0.085506745
-4.0371633 -0.052352566 4.0371804 -0.116066456 -4.219483 0.016395 4.219376 0.025583863
-4.077693 0.018704426 4.077692 0.035115186 -4.04359 -0.0024454007 4.0435896 -0.006598098
-3.293004 -0.01536064 3.2930021 -0.044850685 -4.106694 -0.0675276 4.1066456 -0.12960061
-3.831463 0.040492848 3.83148 0.09034832 -3.7859392 0.04244488 3.7860239 0.10656031
-4.1352425 0.05427399 4.135157 0.12425566

bias f4 [25]
00000000: 8088 2fbb 17d7 21ba ea26 253b 71c3 e9b9
00000010: 521e 24bb a501 8fb9 2187 333b fa05 1b3b
00000020: 9e19 efba ebc3 bdbb 010f 3439 849e 943a
00000030: 327d 85b8 25a6 c137 b78a 153c 6ca3 7abc
00000040: 9e7f 74bb b764 45bc c123 29bb fc83 cb3b
00000050: 7e30 4bb8 c40b f63b bded f4bb 0d54 393a
00000060: e146 23bb
-0.0026784241 -0.00061737135 0.0025200197 -0.00044586838 -0.0025042486 -0.0002727631 0.0027393776 0.0023654685
-0.0018241887 -0.0057911775 0.00017171727 0.0011338745 -6.365254e-05 2.308476e-05 0.0091273105 -0.015297752
-0.003730751 -0.012047938 -0.0025808665 0.006210802 -4.8444133e-05 0.007508727 -0.0074746297 0.00070697145
-0.0024914073
