NEV/Results/Chase/trained_model_v2.pt (torch, 7688 bytes, 8 tensors)

weight f4 [4, 30]
0	0x3795595a	1.7803792e-05
1	0x3e732197	0.23743282
2	0x3e733231	0.23749615
3	0xb94a7940	-0.0001930939
4	0xb8f1f8fb	-0.00011538152
5	0x3e733fd5	0.23754819
6	0x34ec1d4f	4.397975e-07
7	0x3e73061a	0.23732796
8	0x3e73673e	0.23769853
9	0x3931e374	0.00016964768
10	0x3e731fc0	0.2374258
11	0x3e7352a6	0.23761997
12	0xb897fb77	-7.24708e-05
13	0x3e735f5c	0.23766845
14	0x3e73363c	0.23751158
15	0x378b8e84	1.6636455e-05
16	0x3e73684a	0.23770252
17	0x3e733b3f	0.2375307
18	0xb903ef88	-0.00012582366
19	0x3e73645b	0.23768751
20	0xb98eb1a3	-0.000272167
21	0xb90c05e3	-0.00013353633
22	0x3e731837	0.23739706
23	0x3e72fad2	0.23728493
24	0xb8cf1cab	-9.875869e-05
25	0x3dfdc414	0.123909146
26	0x3e281d90	0.16417527
27	0x3e2f3989	0.17111792
28	0x3e25b039	0.16180505
29	0x3e13e484	0.1444264
30	0xb98c2bf7	-0.00026735637
31	0x3e48bb34	0.19602662
32	0x3e494a64	0.19657284
33	0xb977187a	-0.00023564874
34	0xb905a112	-0.00012743872
35	0x3e48d92c	0.19614094
36	0x389d1a28	7.4912154e-05
37	0x3e48efda	0.19622746
38	0x3e493b10	0.19651437
39	0xb912f6d6	-0.00014015599
40	0x3e48b530	0.19600368
41	0x3e4913dc	0.19636482
42	0x39971943	0.00028819786
43	0x3e48d37c	0.19611925
44	0x3e493522	0.19649175
45	0x38fcf9ba	0.000120628116
46	0x3e490b40	0.19633198
47	0x3e491ac8	0.19639122
48	0x36cc3fc6	6.087098e-06
49	0x3e48ec86	0.19621477
50	0x3950c9a3	0.00019911541
51	0x383c4e9f	4.4895914e-05
52	0x3e493aa0	0.1965127
53	0x3e48eff4	0.19622785
54	0x394abbb3	0.00019334145
55	0x3df43566	0.119242474
56	0x3e19c8c2	0.1501799
57	0x3dff6e9c	0.12472269
58	0x3e0cc71b	0.13747828
59	0x3dfcfd53	0.12353005
60	0x391b2d1b	0.00014798755
61	0x3e5cadac	0.21550626
62	0x3e5cbbeb	0.2155606
63	0xb817bb8d	-3.6175876e-05
64	0xb9363e64	-0.00017380115
65	0x3e5c59c1	0.21518613
66	0xb81261cf	-3.4900204e-05
67	0x3e5c95da	0.21541539
68	0x3e5c419f	0.21509407
69	0x399cd33b	0.00029912018
70	0x3e5c715f	0.21527623
71	0x3e5c49d0	0.21512532
72	0x38daeb39	0.00010438864
73	0x3e5c95c6	0.21541509
74	0x3e5caaa3	0.21549468
75	0xb968d001	-0.00022202732
76	0x3e5c8b13	0.21537428
77	0x3e5c90a6	0.21539554
78	0x39836dbc	0.00025068026
79	0x3e5c758f	0.2152922
80	0x395a0581	0.0002079215
81	0xb92096ef	-0.00015315016
82	0x3e5c8b05	0.21537407
83	0x3e5c8038	0.21533287
84	0xb96d0bab	-0.00022606428
85	0x3e0053d6	0.12531981
86	0x3e270603	0.16310887
87	0x3dfbd258	0.12295979
88	0x3e1432b1	0.14472462
89	0x3e1b694c	0.15176886
90	0xb8a36409	-7.791079e-05
91	0x3e71e83d	0.23623748
92	0x3e71f8bf	0.23630045
93	0xb82e3f67	-4.154388e-05
94	0xb9461f54	-0.00018894422
95	0x3e7173b4	0.23579293
96	0x3972b77a	0.00023147269
97	0x3e71fc2f	0.23631357
98	0x3e71dc14	0.2361911
99	0x38c2bc68	9.285734e-05
100	0x3e719072	0.23590258
101	0x3e71eba8	0.23625052
102	0xb95dd8db	-0.00021156987
103	0x3e71ee4c	0.2362606
104	0x3e71e8df	0.2362399
105	0x3950eab1	0.00019923855
106	0x3e71efbe	0.2362661
107	0x3e71f34a	0.23627964
108	0x378763e3	1.6139767e-05
109	0x3e71fb84	0.23631102
110	0x390d9118	0.0001350086
111	0xb8ce3cc5	-9.834165e-05
112	0x3e7190a9	0.2359034
113	0x3e71e85a	0.23623791
114	0x39893ef6	0.00026177586
115	0x3e26987c	0.16269106
116	0x3e3146ec	0.17312211
117	0x3e30a4b8	0.17250335
118	0x3e250608	0.16115582
119	0x3e20efe8	0.15716517

bias f4 [4]
0	0x3e730abc	0.23734564
1	0x3e49279c	0.19644016
2	0x3e5ccbaa	0.21562067
3	0x3e718d40	0.23589039

weight f4 [8, 4]
0	0x3f6da6c9	0.9283262
1	0x3f7b651b	0.9820115
2	0x3f818947	1.0120019
3	0x3f784d72	0.9699317
4	0x3f8247b4	1.0178132
5	0x3f747465	0.95490104
6	0x3f71cc67	0.9445252
7	0x3f3ab415	0.72931033
8	0x3f655ea0	0.8959751
9	0x3f855edc	1.0419574
10	0x3f7db41a	0.9910294
11	0x3f7fcf6d	0.9992588
12	0x3f8e72a5	1.1128737
13	0x3f765a20	0.9623127
14	0x3f42a92b	0.7603938
15	0x3f10e926	0.56605756
16	0x3f948e27	1.1605881
17	0x3f70fa8c	0.94132304
18	0x3f717c22	0.94330037
19	0x3f32ddea	0.69869864
20	0x3f963ea8	1.1737871
21	0x3f72a6a6	0.94785535
22	0x3f7880fc	0.97071815
23	0x3f363a59	0.7118278
24	0x3f84281f	1.0324744
25	0x3f614fc8	0.8801236
26	0x3f6fa1ed	0.93606454
27	0x3f3400cc	0.70313716
28	0x3f88c1c7	1.0684136
29	0x3f7ed6de	0.9954661
30	0x3f79a24d	0.97513276
31	0x3f8adfb5	1.084952

bias f4 [8]
0	0x3f0ff7ce	0.56237495
1	0x3f06d38b	0.5266654
2	0x3f15f8d5	0.5858281
3	0x3ee0d7ef	0.43914744
4	0x3f019095	0.5061124
5	0x3f04e961	0.5191861
6	0x3f006ff1	0.5017081
7	0x3f1f6e47	0.62277645

weight f4 [16, 8]
0	0x3f76cf94	0.9641049
1	0x3f890a04	1.0706182
2	0x3f62e741	0.88634115
3	0x3f52fc9b	0.82416695
4	0x3fabd2c2	1.3423693
5	0x3f885734	1.0651612
6	0x3f692652	0.910741
7	0x3f9aff37	1.2109135
8	0x3f81943c	1.0123363
9	0x3f8ef11c	1.1167331
10	0x3f6bc51d	0.92097646
11	0x3f582826	0.8443626
12	0x3fadbb9d	1.357288
13	0x3f8a62fd	1.0811459
14	0x3f6ea349	0.93217903
15	0x3f9e32d6	1.2359264
16	0x3f865f89	1.0497905
17	0x3f9c6e9f	1.2221259
18	0x3f707658	0.9393058
19	0x3f6e2bf6	0.9303583
20	0x3fccff0f	1.6015338
21	0x3f9ebc88	1.2401285
22	0x3f84123a	1.0318062
23	0x3faed21a	1.3657868
24	0x3f8277f0	1.0192852
25	0x3f900e95	1.125445
26	0x3f827ee5	1.0194975
27	0x3f67aa1e	0.90493953
28	0x3fae4557	1.3614911
29	0x3f8d000b	1.1015638
30	0x3f7e3cba	0.9931141
31	0x3fa427b9	1.2824622
32	0x3f785abd	0.97013456
33	0x3f89e26e	1.0772226
34	0x3f76dae6	0.9642776
35	0x3f5d0b36	0.8634523
36	0x3fa8fa4a	1.3201382
37	0x3f881444	1.0631185
38	0x3f74285d	0.9537409
39	0x3f9eb442	1.239876
40	0x3f7861e2	0.9702436
41	0x3f91a949	1.1379787
42	0x3f5cd66e	0.86264694
43	0x3f5f8d39	0.87324864
44	0x3fc85bff	1.5653075
45	0x3f984f2e	1.1899164
46	0x3f79d4fe	0.97590625
47	0x3fa74a84	1.3069615
48	0x3f793683	0.97348803
49	0x3f8d5ee1	1.104458
50	0x3f6c3f81	0.922844
51	0x3f620dd2	0.8830234
52	0x3fb509dd	1.4143635
53	0x3f8f2702	1.1183779
54	0x3f75d031	0.960208
55	0x3f9e481f	1.236576
56	0x3f778737	0.96690696
57	0x3f8b9d23	1.0907329
58	0x3f6c2f95	0.92260104
59	0x3f5f88ab	0.87317914
60	0x3fb08e58	1.379344
61	0x3f8be960	1.0930595
62	0x3f72c6d0	0.94834614
63	0x3f9c7d81	1.2225801
64	0x3f872bf7	1.0560292
65	0x3f964e58	1.1742659
66	0x3f824d9a	1.0179932
67	0x3f6ba8e0	0.9205456
68	0x3fb1c0d7	1.3886975
69	0x3f901313	1.1255821
70	0x3f80c4cd	1.0060059
71	0x3fa3eabc	1.280601
72	0x3f755b30	0.95842266
73	0x3f88c5ea	1.0685399
74	0x3f616a3b	0.8805272
75	0x3f50f95b	0.81630486
76	0x3fabd813	1.3425316
77	0x3f8823f7	1.0635976
78	0x3f691c60	0.9105892
79	0x3f9c2eba	1.220176
80	0x3f855c44	1.0418782
81	0x3f9349f0	1.1506939
82	0x3f772b7f	0.96550745
83	0x3f617c49	0.8808027
84	0x3fae7b2b	1.3631338
85	0x3f8cf531	1.1012326
86	0x3f754a9c	0.9581697
87	0x3f9ef74c	1.2419219
88	0x3f7d81d0	0.99026203
89	0x3f8ae7f4	1.0852036
90	0x3f6c92da	0.9241158
91	0x3f556090	0.8335047
92	0x3fa6de81	1.3036653
93	0x3f85b30c	1.0445266
94	0x3f6a098c	0.9142082
95	0x3f99b3be	1.2007978
96	0x3f841de7	1.0321625
97	0x3f9452db	1.1587785
98	0x3f86ffc3	1.0546802
99	0x3f73236c	0.94975924
100	0x3fb689f3	1.4260849
101	0x3f937dce	1.1522768
102	0x3f8565a0	1.0421638
103	0x3faa5986	1.330857
104	0x3f7ee41e	0.9956683
105	0x3f8d449d	1.1036564
106	0x3f71bd19	0.94429165
107	0x3f5c5212	0.8606273
108	0x3fad081a	1.3518097
109	0x3f8a6ee0	1.0815086
110	0x3f72c161	0.9482632
111	0x3f9f3569	1.2438174
112	0x3f782bcb	0.9694182
113	0x3f8d45b9	1.1036903
114	0x3f65033d	0.89458066
115	0x3f5e68e0	0.86878777
116	0x3fb53622	1.4157145
117	0x3f8e3f35	1.1113039
118	0x3f70f7e3	0.94128245
119	0x3f9c67c9	1.2219173
120	0x3f7f1c9a	0.9965302
121	0x3f8cb144	1.0991597
122	0x3f6f0884	0.9337237
123	0x3f5a9ff8	0.8540034
124	0x3fab531b	1.3384737
125	0x3f88db7c	1.0691981
126	0x3f6e1355	0.9299825
127	0x3f9bb083	1.2163242

bias f4 [16]
0	0x3f0da153	0.55324286
1	0x3f1298a3	0.57264155
2	0x3f18456c	0.5948093
3	0x3f1ef2cb	0.6208922
4	0x3f179d1d	0.5922411
5	0x3f0d86a8	0.55283594
6	0x3f12325e	0.57108104
7	0x3f11dcf4	0.5697777
8	0x3f1dfc3d	0.6171301
9	0x3f0d83a5	0.55279
10	0x3f17e1f5	0.5932916
11	0x3f1268f5	0.571914
12	0x3f2435c0	0.64144516
13	0x3f156c4d	0.5836838
14	0x3f0ee2d4	0.5581486
15	0x3f137dcf	0.57613844

weight f4 [25, 16]
0	0xc1333155	-11.199544
1	0xc14b079e	-12.68936
2	0xc186d357	-16.853193
3	0xc159f6b5	-13.622731
4	0xc1535503	-13.208255
5	0xc1a1ac13	-20.20902
6	0xc15c5f5a	-13.773279
7	0xc168cca4	-14.549961
8	0xc170dfdf	-15.054656
9	0xc1443e1f	-12.265166
10	0xc17b7e14	-15.718281
11	0xc181e2cf	-16.235746
12	0xc19c4d2f	-19.537687
13	0xc121d0ce	-10.113478
14	0xc15f6302	-13.961672
15	0xc12240a2	-10.1407795
16	0xbfe9b192	-1.8257315
17	0xc008a7cf	-2.1352422
18	0xc06eacd1	-3.7292979
19	0xc0238db3	-2.5555236
20	0xc01f2256	-2.4864707
21	0xc0b2f553	-5.592447
22	0xc047e86a	-3.1235604
23	0xc03b2bf6	-2.9245582
24	0xc04b6832	-3.1782346
25	0xbfffb994	-1.9978509
26	0xc03ad5f0	-2.9193077
27	0xc0320898	-2.7817745
28	0xc0766c69	-3.8503668
29	0xbff8fd97	-1.945239
30	0xc055bd30	-3.339672
31	0xbfe57130	-1.7925167
32	0xc069fbf3	-3.6560028
33	0xc0892314	-4.285532
34	0xc0d6e217	-6.715099
35	0xc093f299	-4.623364
36	0xc08d9372	-4.4242487
37	0xc10c6c29	-8.776406
38	0xc0a27c88	-5.0777016
39	0xc0a0178a	-5.0028734
40	0xc0c5cbfc	-6.1811504
41	0xc07e2cc4	-3.9714823
42	0xc0c45dd5	-6.136454
43	0xc0be3fba	-5.945279
44	0xc0d9fb1b	-6.8119025
45	0xc0612838	-3.5180798
46	0xc0a65756	-5.198161
47	0xc062fd2a	-3.546702
48	0xc048ca5d	-3.1373513
49	0xc06d1561	-3.7044299
50	0xc0c8627d	-6.2620225
51	0xc085cba8	-4.1811104
52	0xc080cb70	-4.0248337
53	0xc10a81f0	-8.656723
54	0xc09d2a9c	-4.9114513
55	0xc094a24a	-4.6448107
56	0xc0b0dd5b	-5.527021
57	0xc05b19f9	-3.4234602
58	0xc0a6e574	-5.2155094
59	0xc09e7a4a	-4.952428
60	0xc0c8691a	-6.26283
61	0xc04c82d7	-3.1954858
62	0xc0a1a51a	-5.051404
63	0xc044e12c	-3.0762434
64	0xbfe4e2f3	-1.788176
65	0xc003e901	-2.0610964
66	0xc05f9fc1	-3.4941256
67	0xc028914d	-2.6338685
68	0xc024c4ab	-2.5745037
69	0xc0b4abf7	-5.645992
70	0xc04468fc	-3.0689077
71	0xc043adae	-3.0574756
72	0xc039824a	-2.8985772
73	0xbffbdfe4	-1.9677701
74	0xc031c6b0	-2.777752
75	0xc0296a87	-2.647127
76	0xc06ff179	-3.7491133
77	0xbffc6d4e	-1.9720857
78	0xc05fe576	-3.4983802
79	0xbfe17aae	-1.7615564
80	0xc239c8e0	-46.446167
81	0xc2393fa8	-46.312164
82	0xc236edd1	-45.732243
83	0xc238e8aa	-46.22721
84	0xc23ac65d	-46.693714
85	0xc239111e	-46.266716
86	0xc238a600	-46.16211
87	0xc239effd	-46.484364
88	0xc237b855	-45.93001
89	0xc23b6762	-46.85096
90	0xc239896e	-46.38421
91	0xc23d0de0	-47.26355
92	0xc237f495	-45.98885
93	0xc23a241c	-46.535263
94	0xc23bc8ea	-46.946205
95	0xc238be0a	-46.185585
96	0xc1a3b894	-20.465126
97	0xc1a38f6d	-20.445032
98	0xc1a32910	-20.39505
99	0xc1a36a18	-20.426804
100	0xc1a3a866	-20.457226
101	0xc1a36e8c	-20.428978
102	0xc1a37ae2	-20.435001
103	0xc1a39833	-20.449316
104	0xc1a35125	-20.414621
105	0xc1a3cad4	-20.474037
106	0xc1a38034	-20.4376
107	0xc1a3dc5c	-20.482597
108	0xc1a348e5	-20.410593
109	0xc1a3999a	-20.45
110	0xc1a3b7df	-20.46478
111	0xc1a39088	-20.445572
112	0xc01031f8	-2.2530499
113	0xc0241f45	-2.5644085
114	0xc024eb37	-2.5768564
115	0xc0561a58	-3.345358
116	0xc05a3ce5	-3.4099667
117	0xc05d742d	-3.4602158
118	0xc01f2ce1	-2.4871142
119	0xc05395f2	-3.306027
120	0xc0228581	-2.5393984
121	0xc02ce80e	-2.7016635
122	0xc04b58f4	-3.1773043
123	0xc05819bc	-3.3765707
124	0xc070095c	-3.7505713
125	0xc0274d2f	-2.614086
126	0xc0557fd1	-3.3359263
127	0xc00ce284	-2.2013254
128	0xbff38cdb	-1.9027361
129	0xc00bfa9d	-2.1871712
130	0xc05e7253	-3.4757278
131	0xc03816f0	-2.8764
132	0xc0344933	-2.8169677
133	0xc0b37039	-5.607449
134	0xc0437594	-3.0540514
135	0xc0526e2f	-3.287975
136	0xc03ad9dd	-2.9195473
137	0xc0081142	-2.1260533
138	0xc03d7dcd	-2.9608033
139	0xc03654cc	-2.8489256
140	0xc07d0ecf	-3.9540288
141	0xc00913ac	-2.1418257
142	0xc06d6025	-3.7089932
143	0xbff19603	-1.8873905
144	0xc1c77f74	-24.937233
145	0xc1c77cb6	-24.935894
146	0xc1c77821	-24.933657
147	0xc1c779fc	-24.934563
148	0xc1c77d66	-24.93623
149	0xc1c77b17	-24.935102
150	0xc1c77bfb	-24.935537
151	0xc1c77cb9	-24.9359
152	0xc1c7794c	-24.934227
153	0xc1c77f22	-24.937077
154	0xc1c77af9	-24.935045
155	0xc1c77fd4	-24.937416
156	0xc1c778a8	-24.933914
157	0xc1c77c3c	-24.935661
158	0xc1c77cf2	-24.936008
159	0xc1c77cb1	-24.935884
160	0xc24c0da6	-51.01333
161	0xc24bfd8c	-50.997604
162	0xc24bd6c2	-50.959724
163	0xc24be959	-50.97788
164	0xc24c01cf	-51.001766
165	0xc24bed32	-50.981636
166	0xc24bf654	-50.990555
167	0xc24bffe1	-50.99988
168	0xc24be317	-50.971767
169	0xc24c106a	-51.01603
170	0xc24bf1d2	-50.986153
171	0xc24c110c	-51.016647
172	0xc24bdec6	-50.967552
173	0xc24bfa85	-50.994648
174	0xc24c02c4	-51.0027
175	0xc24bff68	-50.99942
176	0xc192f109	-18.367693
177	0xc192ef90	-18.366974
178	0xc192ec72	-18.365452
179	0xc192ed6d	-18.36593
180	0xc192ef5c	-18.366875
181	0xc192ef96	-18.366985
182	0xc192eedc	-18.36663
183	0xc192efac	-18.367027
184	0xc192ed47	-18.365858
185	0xc192f235	-18.368265
186	0xc192eed0	-18.366608
187	0xc192f1af	-18.36801
188	0xc192ecdb	-18.365652
189	0xc192ee7b	-18.366446
190	0xc192ef93	-18.36698
191	0xc192ef51	-18.366854
192	0xc11d9a30	-9.850143
193	0xc1314eda	-11.081751
194	0xc17be2da	-15.742884
195	0xc17f024f	-15.938064
196	0xc1844a39	-16.536242
197	0xc1c799a3	-24.950018
198	0xc16a33c7	-14.637641
199	0xc191274a	-18.144184
200	0xc1554f09	-13.331796
201	0xc13545a8	-11.329506
202	0xc1677971	-14.467149
203	0xc1675b4d	-14.45979
204	0xc1a336ac	-20.401695
205	0xc13be198	-11.742577
206	0xc1a6af3d	-20.835566
207	0xc11bfb4e	-9.748854
208	0xbfe0b4a0	-1.7555122
209	0xc00219ed	-2.0328324
210	0xc06351d8	-3.5518703
211	0xc0238ecf	-2.5555913
212	0xc01f3b5e	-2.4879985
213	0xc0b6eceb	-5.7164207
214	0xc046cb07	-3.1061418
215	0xc03f36a8	-2.987711
216	0xc03d7065	-2.959985
217	0xbff6a1a2	-1.9268076
218	0xc02f7cb9	-2.7419875
219	0xc0273daa	-2.6131387
220	0xc06e9a6d	-3.7281754
221	0xbff675ab	-1.925466
222	0xc05d4dae	-3.4578662
223	0xbfdd01d6	-1.7266185
224	0xbff3a853	-1.9035743
225	0xc00e886f	-2.2270772
226	0xc06538ae	-3.5815845
227	0xc0201d75	-2.501798
228	0xc01c507c	-2.4424124
229	0xc09bc88d	-4.8682313
230	0xc03948f7	-2.8950784
231	0xc031a4ee	-2.7756915
232	0xc04a6c76	-3.16287
233	0xc004be03	-2.0740974
234	0xc041012f	-3.0156972
235	0xc03b29f0	-2.9244347
236	0xc06f52a4	-3.739419
237	0xbff46ee3	-1.909634
238	0xc04090b2	-3.0088315
239	0xbfeaf3af	-1.8355616
240	0xc2311879	-44.2739
241	0xc2310e08	-44.263702
242	0xc230f589	-44.23978
243	0xc231027d	-44.25243
244	0xc231108d	-44.266163
245	0xc2310618	-44.25595
246	0xc23109d6	-44.259605
247	0xc2310fb7	-44.265347
248	0xc230fce0	-44.24695
249	0xc2311a24	-44.275528
250	0xc231077a	-44.2573
251	0xc2311a7f	-44.275875
252	0xc230fa48	-44.244415
253	0xc2310c6b	-44.262127
254	0xc23110e2	-44.266487
255	0xc2310fca	-44.26542

bias f4 [25]
0	0xc0d6310c	-6.693487
1	0xbfae07bd	-1.3596112
2	0xc01ec1c3	-2.4805763
3	0xc01037d5	-2.2534077
4	0xbfac83d8	-1.3477736
5	0xc2348eab	-45.139324
6	0xc1a2dde9	-20.358355
7	0xbfbc6e89	-1.4721233
8	0xbfb51417	-1.4146756
9	0xc1c77440	-24.931763
10	0xc24bbab0	-50.932312
11	0xc192e8eb	-18.36373
12	0xc0e50f0e	-7.1580877
13	0xbfaace80	-1.3344269
14	0xbfa9e597	-1.327319
15	0xc230e2ae	-44.221367
16	0xc1ade060	-21.734558
17	0xc1a4ad1f	-20.584532
18	0xc0e4699c	-7.137892
19	0xc11bed56	-9.745443
20	0xc1680b89	-14.502816
21	0xc19e6b6a	-19.802448
22	0xc1a54f1d	-20.66363
23	0xc1a8d6e4	-21.104927
24	0xbfb14512	-1.3849204
